models/sentiment_model_full.pth (torch, 367361 bytes, 4 tensors)

weight f4 [9087, 10]
0	0xbd4e9887	-0.05043843
1	0x3d4217e0	0.04738605
2	0xbd835829	-0.064132996
3	0xbd8b67aa	-0.06806882
4	0x3f457894	0.7713711
5	0x3ec4c23f	0.38429448
6	0x3d5783cd	0.05261593
7	0x3da208f5	0.07911865
8	0x3d2f2422	0.04275907
9	0xbd58410e	-0.052796416
10	0xbe6ec5e4	-0.23317677
11	0xbe3d01e0	-0.18457747
12	0xbf7e0b51	-0.9923602
13	0xbe4055e1	-0.1878276
14	0xbf5e3a0b	-0.86807317
15	0x3fc5df5b	1.5458788
16	0xbfdfd619	-1.7487212
17	0x3b820d12	0.0039688433
18	0x3f00890d	0.5020912
19	0xbca6c891	-0.02035931
20	0xc02a94f5	-2.6653416
21	0x408a2a9a	4.3177004
22	0x3f9c2b6c	1.2200751
23	0xbff71d10	-1.9305744
24	0x405317a7	3.2983186
25	0x3f4c773a	0.79869425
26	0xc0a13e17	-5.0388293
27	0x402420c5	2.5645
28	0x4016aa2a	2.354136
29	0xc02a38db	-2.6597202
30	0xc024d8aa	-2.5757241
31	0x3eeb82b7	0.45998165
32	0x3fa8c761	1.3185846
33	0xbe9cbadd	-0.30611315
34	0x3fcf0d2e	1.6175897
35	0xbf137d92	-0.5761348
36	0xbeb8a324	-0.36061966
37	0x3f682a10	0.9068918
38	0x3e84d178	0.25941062
39	0xbf4eec57	-0.80829376
40	0xc0367d6a	-2.8514047
41	0x403d28b6	2.9556098
42	0x3ea25659	0.31706503
43	0xbee26b0d	-0.44222298
44	0x4016df34	2.3573732
45	0x3f4f0e17	0.80880874
46	0x3e15bbc3	0.14622407
47	0x3fe2b51c	1.771152
48	0xbc49dc1a	-0.012320543
49	0xc000b652	-2.011128
50	0x403ac0b8	2.9180126
51	0xc0987fc6	-4.7655973
52	0x40006e9f	2.0067518
53	0x4035ed6a	2.8426156
54	0x3f8ec49c	1.115375
55	0xc030d75e	-2.763145
56	0x40927084	4.576235
57	0xc083a677	-4.1140704
58	0x3e9d45b6	0.30717248
59	0x3ff1bea4	1.8886304
60	0xc03e932c	-2.9777327
61	0x4016680d	2.3501008
62	0xbf8a6c7c	-1.0814357
63	0xbfd68eb3	-1.6762298
64	0x3fc121ca	1.5088437
65	0xbc9bf56e	-0.019037928
66	0xbf817bb5	-1.0115877
67	0x3fde9ff2	1.7392561
68	0x4011cbb8	2.278059
69	0xc0376d59	-2.866049
70	0x408dbdea	4.429433
71	0xc032e79d	-2.7953866
72	0x40afcbc5	5.493624
73	0x40bfc0cd	5.9922853
74	0xc0623a42	-3.5348058
75	0xc0eabf28	-7.3358345
76	0x4053b7b5	3.3080876
77	0xc04b383e	-3.1753078
78	0xc059dbb2	-3.4040341
79	0x40cb59df	6.3547206
80	0xc19e7aaa	-19.809895
81	0x41a97b41	21.185183
82	0xc14eb617	-12.919456
83	0xc1955de2	-18.670841
84	0x41baefed	23.367151
85	0x412fd79d	10.99014
86	0xc1aab919	-21.34038
87	0x419d827c	19.688713
88	0x4192b623	18.338934
89	0xc18fc569	-17.971392
90	0xbf45883e	-0.77161014
91	0x40605806	3.5053725
92	0x4042567b	3.0365283
93	0xbdb0397b	-0.086047135
94	0x401d4944	2.4575968
95	0xc07a5746	-3.9115767
96	0xbf823510	-1.0172443
97	0x3f92f267	1.1480225
98	0xbf1cb762	-0.6121732
99	0xbe0b9abc	-0.13633245
100	0xbf23b49a	-0.6394745
101	0x3e3eb4f6	0.18623719
102	0x3fe2e753	1.7726845
103	0x3f93c2e2	1.1543849
104	0x3fd94ed6	1.6977184
105	0xc06da209	-3.7130148
106	0xbf19f215	-0.6013501
107	0xbf2c70e7	-0.67359775
108	0xbf3e38b3	-0.74305266
109	0x3ffa17f0	1.9538555
110	0x401d1f93	2.4550521
111	0xbf33539d	-0.7004946
112	0x400c9082	2.19632
113	0x3d557398	0.052112192
114	0x3ddbf197	0.10739439
115	0xbfd4e0dd	-1.6631123
116	0x3cf6b18e	0.030113962
117	0xbf89168b	-1.0710005
118	0x3f4527cd	0.77013856
119	0xbecfd822	-0.40594584
120	0x40c836d8	6.256695
121	0xc097b59d	-4.7409196
122	0x409f9b9b	4.987745
123	0x40c4d519	6.151013
124	0xc07be77c	-3.9360037
125	0xc0be89df	-5.95433
126	0x4080d368	4.0258064
127	0xc0920e66	-4.5642576
128	0xc0bc49f7	-5.884029
129	0x40891e41	4.284943
130	0x411e92d6	9.910849
131	0xc118c35a	-9.547693
132	0x4158ad22	13.542269
133	0x4149a710	12.603287
134	0xc1412d1e	-12.073515
135	0xc1728231	-15.156785
136	0x41160646	9.376532
137	0xc131b25a	-11.106043
138	0xc12dc651	-10.860917
139	0x41330b9f	11.190337
140	0x3f99552b	1.1979116
141	0xbf58f962	-0.8475553
142	0x402f76d8	2.7416286
143	0x3fd232f3	1.6421798
144	0xbe3449a6	-0.1760622
145	0xc08dc9b0	-4.43087
146	0x4029d293	2.6534774
147	0xbfea4c51	-1.830454
148	0xbf52282e	-0.8209256
149	0x3fb87f29	1.4413806
150	0x3fee5479	1.8619529
151	0xbfd5356a	-1.6656926
152	0x4021e199	2.5293944
153	0x40018786	2.0238967
154	0xbe5a09b4	-0.21292764
155	0xc023d24b	-2.5597103
156	0x3f878b01	1.0589296
157	0xbff68124	-1.925816
158	0xbfcc099c	-1.5940433
159	0x3fe422a5	1.7823073
160	0xc0429bc2	-3.0407567
161	0x4009f2cf	2.1554449
162	0xbe9d5ba8	-0.3073399
163	0xc021d358	-2.5285244
164	0x3fb898b4	1.4421601
165	0x3faaa89f	1.3332709
166	0xc01a7d25	-2.4138882
167	0x3fa35955	1.2761637
168	0x3fc9f54e	1.5777986
169	0xc01f69af	-2.4908254
170	0xc04211a4	-3.0323267
171	0x406a0ccf	3.6570318
172	0x3fc67bcd	1.5506531
173	0xbfb4d64f	-1.4127902
174	0x4020bc17	2.51148
175	0xbf607211	-0.8767405
176	0xc0828c2c	-4.079611
177	0x402d2d71	2.7058985
178	0x40162ff5	2.346677
179	0xc033680d	-2.8032258
180	0xbf4e8159	-0.8066612
181	0x3e801750	0.25017786
182	0x404b439f	3.1760023
183	0x3fd4eb47	1.6634301
184	0x405ff5f9	3.499388
185	0xc08ae7a1	-4.340775
186	0x400fc17a	2.2461839
187	0xbedcc14e	-0.4311623
188	0x3f213a5a	0.6297966
189	0x401ff81b	2.4995182
190	0xbfb0968d	-1.3795944
191	0x405f1c76	3.486112
192	0xbeb52758	-0.3538158
193	0xc05b8391	-3.4299052
194	0x40492f5d	3.1435158
195	0xbfa3fad6	-1.2810924
196	0xc08e479a	-4.4462404
197	0x4042157b	3.032561
198	0x3dfe6f86	0.12423615
199	0xc04cd7fa	-3.2006822
200	0xbf916e2e	-1.1361749
201	0xbeb76004	-0.35815442
202	0x4045722d	3.0850937
203	0x3fb2c24e	1.3965547
204	0x3f88bde8	1.0682955
205	0xc0324eb2	-2.7860532
206	0xbfd7416d	-1.6816841
207	0x3f9cc604	1.224793
208	0x3f5f3276	0.8718637
209	0x3d5f3d5e	0.054501884
210	0xbfe64637	-1.7990178
211	0x40085ddc	2.1307287
212	0x4045d2a1	3.0909808
213	0xc05109a6	-3.266214
214	0x4034c114	2.8242846
215	0xc104c8f2	-8.299059
216	0xc0582d39	-3.3777602
217	0x3f977e8f	1.1835498
218	0x40480c8b	3.1257656
219	0xc02be8cc	-2.6860838
220	0x3fc74e09	1.557069
221	0xc013497a	-2.3013597
222	0x40150d9c	2.3289557
223	0x403e9de5	2.978387
224	0x3f8009f9	1.0003043
225	0xc08a4eb1	-4.322106
226	0x401ffa8f	2.499668
227	0xc071d769	-3.7787726
228	0xbfec7d75	-1.8475786
229	0x404a27f0	3.1586876
230	0xbf9e7c32	-1.2381651
231	0x3fa23913	1.2673668
232	0x3fc5a785	1.5441748
233	0x3e803a5d	0.25044528
234	0x3ff10f93	1.8832878
235	0xc062d534	-3.544263
236	0xbf3f1e68	-0.7465577
237	0xbf1de4da	-0.61677325
238	0xbed7bb9b	-0.4213532
239	0x3f88c011	1.0683614
240	0xbfd0773d	-1.6286389
241	0x3fa3ef09	1.2807323
242	0xbfb64b3a	-1.4241707
243	0xbf9b9c54	-1.2157083
244	0x3fdd8f56	1.7309368
245	0xbfac2661	-1.3449212
246	0xc06e8fbf	-3.7275236
247	0x3fef970b	1.871797
248	0x40084928	2.129465
249	0x3f3f4997	0.74721664
250	0xbf681756	-0.9066061
251	0x400d798b	2.2105434
252	0xbe861c3a	-0.2619341
253	0xc0224735	-2.5355961
254	0x3df88df5	0.12136451
255	0x3ec3a66d	0.3821291

weight f4 [5, 10]
0	0xbfbdce90	-1.4828663
1	0x3f9a313f	1.2046279
2	0xbe220d1a	-0.1582531
3	0xbf8408bc	-1.0315166
4	0x3f8e7a4c	1.1131072
5	0xbee4a2bf	-0.44655415
6	0xc085fd5b	-4.187177
7	0x3ea22d32	0.31675106
8	0x3e0f1b62	0.1397529
9	0xbfd5f6b8	-1.6715918
10	0xbe893771	-0.2680011
11	0xbb2e047f	-0.0026552973
12	0xbc36d824	-0.01115993
13	0xbe7806a7	-0.24221288
14	0xbdc20b80	-0.0947485
15	0xbd9bdd5e	-0.07610582
16	0xbddb6181	-0.10711957
17	0xbc3ec63c	-0.011643942
18	0xbe2d72f8	-0.16938388
19	0xbd69697e	-0.05698537
20	0xbe362061	-0.17785789
21	0x3dd451ff	0.10367202
22	0xbd43a60c	-0.047765777
23	0xbe6c264c	-0.23061484
24	0xbd3682ce	-0.04455834
25	0x3e06e90a	0.13174835
26	0xbe43a61c	-0.19106334
27	0xbdde53fa	-0.10855861
28	0x3d87c62c	0.06629595
29	0x3ea9e514	0.33182585
30	0x4091acf8	4.5523643
31	0xc024777c	-2.5697927
32	0x403de171	2.9668849
33	0x40684e12	3.629765
34	0xbf85ee01	-1.0463258
35	0xc066402a	-3.5976663
36	0x4081a9cd	4.0519776
37	0xc069331a	-3.643744
38	0xbf7dfb1b	-0.9921128
39	0x408a31cd	4.318579
40	0xc099e9d4	-4.8097935
41	0x40a85e2a	5.2614946
42	0xbf8b50c7	-1.0884026
43	0xc01f7111	-2.491276
44	0x3e64cf51	0.2234471
45	0x3e9838c7	0.29730818
46	0xc1080fc8	-8.503853
47	0x40807e34	4.0154057
48	0x3f7a8618	0.9786086
49	0xc085fee8	-4.1873665

bias f4 [5]
0	0x3ed8e998	0.42365718
1	0xbd9db38e	-0.07700263
2	0xbdf35fd7	-0.118835144
3	0xbf473414	-0.7781384
4	0x3e345c13	0.17613249

weight f4 [1, 5]
0	0x3f048139	0.5175968
1	0x3d94970b	0.07255372
2	0xbcc5763c	-0.02410423
3	0xc017936d	-2.3683732
4	0x4026379a	2.5971437
